…
NUM_CLASSES 2
NUM_CHANNELS 2
{'model': 'im', 'sim_real': 'sim', 'params': 'N_anc,T_split,mig', 'grid': 'sa', 'is_range': None, 'input': None, 'output': None, 'toy': None}
NAME	VALUE	MIN	MAX
N_anc	15000	1000	25000
NAME	VALUE	MIN	MAX
T_split	2000	500	20000
NAME	VALUE	MIN	MAX
mig	0.05	-0.2	0.2
init [3615.2586075773725, 1334.763266877868, -0.14853523658485024]
Model: "i_mmodel"
_________________________________________________________________
Layer (type)                 Output Shape              Param #   
=================================================================
conv2d_2 (Conv2D)            (None, 98, 32, 32)        352       
_________________________________________________________________
conv2d_3 (Conv2D)            (None, 98, 28, 64)        10304     
_________________________________________________________________
flatten_1 (Flatten)          (None, 1792)              0         
_________________________________________________________________
concatenate (Concatenate)    (None, 3584)              0         
_________________________________________________________________
dense_3 (Dense)              (None, 128)               458880    
_________________________________________________________________
dense_4 (Dense)              (None, 128)               16512     
_________________________________________________________________
dense_5 (Dense)              (None, 2)                 258       
=================================================================
Total params: 486,306
Trainable params: 486,306
Non-trainable params: 0
_________________________________________________________________
Epoch 100, Loss: 0.22404199838638306, Accuracy: 94.0, Conf Matrix: [[22, 2], [1, 25]]
Epoch 200, Loss: 0.051465243101119995, Accuracy: 98.0, Conf Matrix: [[27, 0], [1, 22]]
params, test_acc [3615.2586075773725, 1334.763266877868, -0.14853523658485024] 0.954
…
